models/colour/retina_4_2_0.pt (torch_old, 73629 bytes, 4 tensors)

weight f4 [32, 3, 9, 9]
-0.036893994 0.014625349 0.012886446 -0.03869364 -0.024748702 -0.022775752 -0.015026861 -0.010526471
0.0018870133 -0.023647767 0.0050664744 0.0035795998 0.01193731 0.023039568 -0.029491872 0.039938353
-0.008720755 0.04507686 -0.011145663 -0.0036036398 0.0033604598 -0.02132602 0.0058923895 0.043982938
-0.0013821529 0.057904024 0.026471011 -0.0001475219 -0.0071464684 -1.8656407e-05 0.024489867 -0.020099945
0.02804751 0.016064351 -0.025925381 -0.03158609 0.016564451 0.046355866 -0.018069647 -0.010406919
0.015534236 0.009244355 -0.040104024 0.045309383 -0.016202657 0.034329284 0.06104531 -0.00094810023
0.020635623 -0.022635065 0.034354746 -0.032609526 0.00030862138 0.011420401 -0.02944437 -0.003999331
0.012474637 -0.050085727 0.03540017 -0.035439376 0.019098317 -0.0046931137 -0.020775236 0.044787142
0.0071899574 -0.054337695 -0.036416195 -0.007084773 -0.041548334 0.044352565 -0.037015516 0.022873437
-0.005233162 -0.044855032 0.020470545 0.0071180644 -0.019078081 0.020479858 -0.027962532 0.007990845
-0.0401618 -0.0068842433 -0.010845197 0.053407624 -0.034020133 0.012316123 0.03925403 0.013938715
-0.011244506 -0.04493253 0.024231507 0.022911819 0.006929086 0.04163229 -0.030520556 0.015874883
-0.0063335896 0.015237433 -0.008525814 0.03339697 0.025143083 0.03383043 0.033932768 0.016713284
-0.023417713 0.005318963 -0.02141533 -0.009103151 0.026380923 -0.00023821354 0.026281577 -0.034697663
0.0124541195 -0.031820778 -0.0051695886 -0.012938426 -0.02267708 0.043484394 -0.0023139822 -0.0074562454
-0.043255504 -0.009727876 -0.021191379 -0.012306226 -0.0087107085 -0.052262865 -0.0025645623 0.05088879
0.03529753 -0.047784638 -0.04184875 -0.012253581 0.01142101 0.034825314 -0.0009783341 0.0392306
-0.0015384128 -0.047174223 -0.043377023 0.00964434 -0.031825587 0.013010043 0.021991326 -0.022438219
0.047929414 -0.025073353 -0.025205348 0.019982625 -0.019231195 0.007007485 0.035772633 0.027052
0.037960906 -0.03887387 -0.00084148615 -0.037549313 -0.04203369 0.022475297 -0.013633652 0.009194453
-0.04765194 -0.035730667 -0.034864362 0.050811242 0.042388406 -0.013494537 0.036466412 -0.0021082603
-0.0012472309 -0.041685104 -0.030962665 0.04996349 -0.017801953 -0.0336973 -0.02525257 0.048583146
0.03638128 -0.019330043 0.029629998 -0.018660363 -0.039015718 -0.020507729 0.033278443 -0.027988283
0.011555933 -0.015497933 -0.025060289 0.032811534 0.03760214 -0.040124208 -0.02267038 -0.031418454
-0.028915836 0.020742813 0.038216893 0.024203701 -0.018900909 0.02182606 0.0063764416 -0.005990462
0.00054981053 0.0016263458 0.03984708 0.004398099 0.026104365 -0.035837255 0.041331384 0.0060780696
0.04440553 0.02668043 0.007925813 -0.03178033 0.021857284 -0.033105884 0.020037416 -0.043042023
-0.014954321 0.04764254 -0.05308305 0.006606507 0.02232366 0.0030247476 0.02572513 0.018489372
0.00502834 0.009817442 -0.02995605 0.0012911827 0.0016467021 -0.0077034943 -0.0056660897 0.055673324
0.010827363 0.025801914 -0.02516376 0.043235067 -0.03665005 -0.00625822 -0.00763359 0.044433754
-0.002912544 0.0016218439 0.031415015 0.038778447 -0.012001487 -0.036494978 -0.04517116 0.014208778
0.030784253 0.030030476 0.012693219 0.016636362 -0.034360934 -0.021453777 0.0005855192 0.008904112
00000000: 281e 17bd 299f 6f3c ac21 533c 397d 1ebd
00000010: cabd cabc 3794 babc 3933 76bc 3877 2cbc
00000020: a955 f73a f6b8 c1bc ab04 a63b b897 6a3b
00000030: b594 433c 7abd bc3c f098 f1bc 6696 233d
00000040: 7fe1 0ebc 83a2 383d 4d9c 36bc 0b2b 6cbb
00000050: 293b 5c3b e8b3 aebc f214 c13b 7427 343d
00000060: 5b29 b5ba c52c 6d3d bcd9 d83c 1cb0 1ab9
00000070: ec2c eabb 5480 9cb7 f99e c83c a4a8 a4bc
00000080: e4c3 e53c 6399 833c 7761 d4bc 6a60 01bd
00000090: 2cb2 873c a6df 3d3d cc06 94bc c881 2abc
000000a0: 4f83 7e3c a375 173c 1e44 24bd 5596 393d
000000b0: 6fbb 84bc dd9c 0c3d a60a 7a3d ee89 78ba
000000c0: 0a0c a93c 2c6d b9bc 90b7 0c3d 9191 05bd
000000d0: 76ce a139 a21c 3b3c 5235 f1bc d20c 83bb
000000e0: 6b62 4c3c b126 4dbd c5ff 103d e128 11bd
000000f0: 1374 9c3c b1c8 99bb d430 aabc b972 373d
00000100: bc99 eb3b 3491 5ebd 2629 15bd 6227 e8bb
00000110: 962e 2abd 09ab 353d 959d 17bd 1361 bb3c
00000120: f27a abbb e9b9 37bd d8b1 a73c a73e e93b
00000130: a349 9cbc 60c5 a73c ae11 e5bc 08ec 023c
00000140: b380 24bd 3895 e1bb 0eb0 31bc f4c1 5a3d
00000150: b258 0bbd 90c9 493c d5c8 203d 355f 643c
00000160: e03a 38bc 2c0b 38bd 2781 c63c 91b1 bb3c
00000170: 630d e33b 9f86 2a3d 3f06 fabc 0b0c 823c
00000180: 008a cfbb 6da6 793c dbaf 0bbc 43cb 083d
00000190: def8 cd3c c791 0a3d 16fd 0a3d 4cea 883c
000001a0: 81d6 bfbc b24a ae3b 346f afbc 6225 15bc
000001b0: ce1c d83c f6c8 79b9 764c d73c 231f 0ebd
000001c0: 5d0c 4c3c 8156 02bd a765 a9bb b1fb 53bc
000001d0: 49c5 b9bc b11c 323d 2ea6 17bb 8553 f4bb
000001e0: af2c 31bd ab61 1fbc 8b99 adbc 0ea0 49bc
000001f0: 5cb7 0ebc 9611 56bd 3712 28bb c470 503d
00000200: 2594 103d d3b9 43bd 9869 2bbd 3ec3 48bc
00000210: 301f 3b3c fda4 0e3d 723b 80ba 44b0 203d
00000220: 91a4 c9ba c239 41bd 1bac 31bd 4b03 1e3c
00000230: 8c5b 02bd 1328 553c 2727 b43c 5bd0 b7bc
00000240: a251 443d a266 cdbc 727b cebc 9ab2 a33c
00000250: bd8a 9dbc 0b9f e53b 5386 123d 289c dd3c
00000260: e57c 1b3d 353a 1fbd 2e97 5cba 4fcd 19bd
00000270: 852b 2cbd 1d1e b83c ae5f 5fbc 55a4 163c
00000280: ae2e 43bd 525a 12bd efcd 0ebd 731f 503d
00000290: 779f 2d3d 3118 5dbc ce5d 153d bd2a 0abb
000002a0: 207a a3ba 00be 2abd 6aa5 fdbc 84a6 4c3d
000002b0: 67d5 91bc 2e06 0abd 7ade cebc 1fff 463d
000002c0: 8904 153d 0a5a 9ebc 9cba f23c 9edd 98bc
000002d0: f2ce 1fbd d3ff a7bc fa4e 083d af47 e5bc
000002e0: 1955 3d3c 0beb 7dbc 3c4b cdbc 6365 063d
000002f0: b404 1a3d 4859 24bd 3cb7 b9bc a3b0 00bd
00000300: e7e0 ecbc d5ec a93c 5189 1c3d d746 c63c
00000310: 14d6 9abc 91cc b23c 78f1 d03b a34b c4bb
00000320: 2921 103a 1c2b d53a b136 233d ee1d 903b
00000330: d2d8 d53c 16ca 12bd 194b 293d 8b2a c73b
00000340: 93e2 353d eb90 da3c 45db 013c 172c 02bd
00000350: 0c0e b33c 099a 07bd 8225 a43c d54c 30bd
00000360: f802 75bc d324 433d 9d6d 59bd 667b d83b
00000370: 1ce0 b63c d83a 463b 82bd d23c 0677 973c
00000380: c6c4 a43b 56d9 203c 6466 f5bc e73c a93a
00000390: 27d6 d73a 986d fcbb 9baa b9bb b609 643d
000003a0: 4065 313c 895e d33c 3b24 cebc 4117 313d
000003b0: 5d1e 16bd c111 cdbb 3223 fabb 2b00 363d
000003c0: 61e0 3ebb 0d94 d43a 08ad 003d 26d6 1e3d
000003d0: e3a1 44bc c27b 15bd 6505 39bd efcb 683c
000003e0: 422f fc3c 7902 f63c 38f7 4f3c fb48 883c
000003f0: 0dbe 0cbd d5bf afbc 877d 193a 8de2 113c

bias f4 [32]
-0.023618212 0.011487149 0.049776908 0.004767122 -0.018640256 -0.0043205502 -0.01049084 0.008375994
0.001249558 0.0035401632 0.014782275 0.020987358 0.01755557 0.016034879 -0.024715012 0.037123807
-0.0011294394 0.030457262 -0.0021999911 0.0014412724 -0.017009698 -0.013241504 0.020087106 0.0036620514
0.020877782 0.027021676 0.007823015 0.05024736 0.004139971 0.027215602 0.009048981 -0.0052255425
00000000: fb7a c1bc 9834 3c3c dfe2 4b3d 8535 9c3b
00000010: 73b3 98bc 6793 8dbb c6e1 2bbc 773b 093c
00000020: 35c8 a33a 1502 683b 5b31 723c aeed ab3c
00000030: b3d0 8f3c 945b 833c 2377 cabc 220f 183d
00000040: b309 94ba 8281 f93c ba2d 10bb 14e9 bc3a
00000050: ec57 8bbc e5f2 58bc b78d a43c 07ff 6f3b
00000060: e207 ab3c 905c dd3c 1a2c 003c 2dd0 4d3d
00000070: 98a8 873b 41f3 de3c 2d42 143c 073b abbb

weight f4 [4, 32, 9, 9]
-0.013393512 -0.019535873 -0.019197982 0.017033853 0.045262154 0.032466818 -0.029654153 -0.030543838
-0.005313087 0.023624172 -0.0153912455 0.012045211 0.021131124 -0.0010583849 -0.0011590439 0.013959183
0.001528851 0.04066638 -0.036187895 -0.042436108 0.0114399325 0.0053813 -0.02911506 0.017891748
0.00081214745 -0.020182407 -0.014673214 0.04302932 -0.020067068 -0.009091307 0.006774635 0.011929055
0.014959282 -0.020732181 -0.041961215 0.006000429 0.016930908 0.022823067 0.03278461 -0.03965795
-0.0072562587 -0.034648497 -0.03164972 -0.0059029367 -0.038500138 0.023845412 -0.0235153 -0.0017239244
0.026700018 -0.049600974 0.042717572 0.010521052 0.033062145 0.010390714 0.00956415 -0.003953632
-0.005775899 -0.01283695 -0.05092829 -0.024227895 0.05600702 0.06498609 0.021251697 -0.049592618
0.031079479 -0.002503185 0.012677357 -0.048506837 0.007868979 -0.026314631 0.009223704 -0.031154795
0.031135267 -0.0032240364 0.0007793535 -0.022185855 0.036453206 -0.017639356 0.032439318 0.01297136
-0.046935193 0.018719252 0.009216253 0.02895143 -0.038240656 -0.015795024 0.060446035 0.0028998037
-0.014498901 -0.009058299 -0.017697398 0.010433818 0.011908172 -0.016108954 -0.02377106 0.0508851
0.044266727 0.03664251 0.0272505 -0.032470755 0.042509902 0.03342048 -0.03743611 -0.019473806
-0.00097649335 -0.00097159704 0.039816532 0.016486371 0.010505336 -0.028251542 0.07082867 -0.009920808
0.026233008 -0.044849355 -0.033078834 -0.01844864 -0.0023743552 0.008680725 -0.03236053 0.005421386
-0.0029507333 0.028810395 0.0075049535 0.016193083 0.037445374 -0.04083242 0.00023032441 0.0112323165
-0.018610796 -0.03425479 0.037282452 0.011399499 -0.015157717 0.0022971344 0.035186335 0.02858885
0.032129005 -0.001318959 -0.059705935 -0.020272156 0.019355569 -0.029975122 -0.04374528 -0.030246863
0.031256925 -0.02506502 -0.022562359 0.01742642 -0.06232496 -0.059477314 -0.02333262 -0.06620038
-0.043568134 0.04723944 -0.018119665 -0.02300703 0.013654543 0.016885012 0.0066384547 0.043833524
-0.029172748 -0.035639264 0.010212696 -0.040315878 0.052570026 0.01816369 0.022985546 -0.019821556
0.008366887 0.046763543 0.02582646 0.013766953 0.02985111 -0.008639762 0.006245236 0.04828239
-0.020142311 -0.05683587 0.0042056325 -0.026404614 -0.06437944 0.025978485 0.001432152 0.04098343
0.044000193 0.02414889 -0.027640214 -0.027392875 -0.015445682 -0.011184554 -0.039310493 0.043555945
-0.0073857154 0.011152803 0.014227869 0.007899534 0.0090814 -0.022742795 0.009236449 0.009717275
-0.006002815 -0.012720767 0.0007997442 -0.027145168 0.02843668 -0.030276854 -0.009628752 -0.00015010688
-0.013399945 0.03357299 0.038350582 -0.0238991 0.0061633517 -0.0012552994 0.03562591 0.04391057
-0.038974106 -0.028067544 0.009941101 0.026218893 0.03957553 -0.011290936 0.0048950557 -0.017638717
0.014637541 -0.018883452 0.0029926058 -0.03831497 -0.05099743 -0.0068113143 -0.024623837 -0.029917637
0.030958705 0.016790012 0.009886085 -0.013824047 -0.00657012 -0.031461604 -0.012630576 0.003091788
-0.01638748 -0.03623684 -0.038463976 -0.024188954 -0.0013107603 0.016881123 0.04110392 -0.04800339
0.03648841 0.013285229 -0.015134811 -0.0068331123 0.024252797 -0.03877987 0.027195275 -0.0016174038
00000000: 7670 5bbc b209 a0bc 1645 9dbc 948a 8b3c
00000010: cf64 393d edfb 043d 44ed f2bc 1237 fabc
00000020: 6719 aebb 7b87 c13c 902b 7cbc 4759 453c
00000030: 2e1b ad3c 81b9 8aba 0feb 97ba 0fb5 643c
00000040: ba63 c83a ca91 263d c239 14bd 7cd1 2dbd
00000050: 8e6e 3b3c 9e55 b03b b582 eebc b791 923c
00000060: 4be6 543a 9355 a5bc ec67 70bc 833f 303d
00000070: b163 a4bc b5f3 14bc c2fd dd3b 1572 433c
00000080: c717 753c 89d6 a9bc 86df 2bbd 3f9f c43b
00000090: b0b2 8a3c 71f7 ba3c 2849 063d 6070 22bd
000000a0: e9c5 edbb 95eb 0dbd 23a3 01bd 6c6d c1bb
000000b0: 52b2 1dbd 7457 c33c 29a3 c0bc 4ef5 e1ba
000000c0: ffb9 da3c 642a 4bbd 9ff8 2e3d 7e60 2c3c
000000d0: 2c6c 073d d03d 2a3c f4b2 1c3c 788d 81bb
000000e0: c143 bdbb 1252 52bc 2f9a 50bd 9479 c6bc
000000f0: 9e67 653d 6d17 853d 0a18 ae3c a121 4bbd
00000100: 649a fe3c 7a0c 24bb b0b4 4f3c 1baf 46bd
00000110: e4ec 003c c891 d7bc 051f 173c 5738 ffbc
00000120: 630f ff3c 5b4a 53bb 874d 4c3a 1cbf b5bc
00000130: f54f 153d 6980 90bc 17df 043d d485 543c
00000140: 1e3f 40bd 1e59 993c c4ff 163c 8d2b ed3c
00000150: 3ca2 1cbd 9164 81bc 4396 773d a20a 3e3b
00000160: cc8c 6dbc 4269 14bc 22fa 90bc 9bf2 2a3c
00000170: 7e1a 433c edf6 83bc 87bb c2bc e56c 503d
00000180: 0751 353d 7516 163d 713c df3c 0e00 05bd
00000190: dd1e 2e3d eae3 083d 9b56 19bd 8887 9fbc
000001a0: 5cfb 7fba c6b2 7eba a916 233d 6d0e 873c
000001b0: 931e 2c3c c76f e7bc 9f0e 913d e28a 22bc
000001c0: 9be6 d63c f5b3 37bd ac7d 07bd 9a21 97bc
000001d0: 129b 1bbb 9939 0e3c 7a8c 04bd e2a5 b13b
000001e0: 1761 41bb c703 ec3c 1dec f53b 5ba7 843c
000001f0: 5260 193d e53f 27bd 3d83 7139 c007 383c
00000200: ab75 98bc c04e 0cbd 7cb5 183d f7c4 3a3c
00000210: 1358 78bc 858b 163b 8c1f 103d 2a33 ea3c
00000220: b499 033d ece0 acba 368e 74bd cb11 a6bc
00000230: 928f 9e3c 638e f5bc 402e 33bd 45c8 f7bc
00000240: 4307 003d 2855 cdbc b2d4 b8bc dac1 8e3c
00000250: 7548 7fbd 7c9e 73bd 0d24 bfbc 1194 87bd
00000260: 8074 32bd 257e 413d b16f 94bc 3d79 bcbc
00000270: 4eb7 5f3c 7052 8a3c 6587 d93b c88a 333d
00000280: b0fb eebc 7afa 11bd 2753 273c 4322 25bd
00000290: ab53 573d 05cc 943c 2f4c bc3c d160 a2bc
000002a0: 4515 093c 218b 3f3d 0392 d33c c98e 613c
000002b0: 518a f43c ca8d 0dbc d6a4 cc3b c1c3 453d
000002c0: 7d01 a5bc bbcc 68bd 67cf 893b 7d4e d8bc
000002d0: 5ed9 83bd d5d0 d43c 0cb7 bb3a 3ede 273d
000002e0: 8c39 343d e5d3 c53c bb6d e2bc 0667 e0bc
000002f0: e30f 7dbc 6b3f 37bc 0a04 21bd b867 323d
00000300: df03 f2bb 3fba 363c 021c 693c 0c6d 013c
00000310: 27ca 143c 194f babc 7a54 173c 3535 1f3c
00000320: 43b3 c4bb c46a 50bc eda5 513a 8b5f debc
00000330: 0af4 e83c 2a07 f8bc eac1 1dbc 0266 1db9
00000340: 718b 5bbc d583 093d 8015 1d3d 0cc8 c3bc
00000350: f1f5 c93b dc88 a4ba 79ec 113d 92db 333d
00000360: 50a3 1fbd e8ed e5bc 00e0 223c 01c9 d63c
00000370: f319 223d 9efd 38bc b466 a03b 127f 90bc
00000380: 4cd2 6f3c 78b1 9abc 981f 443b 28f0 1cbd
00000390: aee2 50bd 7231 dfbb eeb7 c9bc d515 f5bc
000003a0: 1c9d fd3c 358b 893c 3ff9 213c 417e 62bc
000003b0: 294a d7bb e2dd 00bd 7af0 4ebc 989f 4a3b
000003c0: 093f 86bc 156d 14bd 678c 1dbd ea27 c6bc
000003d0: d1cd abba 484a 8a3c 965c 283d 349f 44bd
000003e0: df74 153d 4aaa 593c 00f8 77bc 4de8 dfbb
000003f0: cdad c63c a4d7 1ebd a0c8 de3c 11ff d3ba

bias f4 [4]
0.0073395637 -0.005939968 0.0118791945 0.01814664
00000000: b980 f03b 10a4 c2bb f4a0 423c 43a8 943c
